nn_model/checkpoint/KinematicBicycle2D_mpc_cbf_1.pth (torch, 223198 bytes, 10 tensors)

model.lin1.weights f4 [3, 5, 40]
000000 51 a8 d7 3e 5f 5e 5b 3e 2b c3 7e be c2 f4 cf 3e
       0.42120603 0.21422718 -0.24879138 0.40616423
000010 6e ad c8 bd 13 a0 a4 bc a5 bf 2e be 94 d4 f0 3d
       -0.09798704 -0.02009586 -0.17065294 0.11759296
000020 3f c7 95 3e 51 3c a2 be 4e 97 9c 3e 44 ad 14 3e
       0.29253575 -0.31686643 0.30584186 0.1451922
000030 dc de 81 3e fd 3d 9c 3d 8d ce 26 3e a9 66 92 3c
       0.2536534 0.07629011 0.1628973 0.017871218
000040 a5 b6 aa 3e 1c 6f a8 3d 18 dd 33 be 38 37 d8 3d
       0.33342472 0.082243174 -0.1756481 0.10557407
000050 32 23 91 be a9 61 ce bc 11 a5 37 be 37 6c 27 3e
       -0.28347164 -0.025193052 -0.17934062 0.16349874
000060 fa b3 8a be 91 fd 87 be b0 8a 16 be f6 fa 91 be
       -0.27090436 -0.26560643 -0.14701343 -0.2851178
000070 a2 fb 16 bd 19 44 ed be e0 e9 98 3e 3c 61 f7 be
       -0.03686107 -0.46341017 0.29865932 -0.4831637
000080 a9 08 23 3e 3f d9 da 3c c6 74 1f be ba 13 91 3e
       0.15921272 0.02671492 -0.1557189 0.28335363
000090 9b 2e a3 bc 6f ba 94 3e 34 19 a5 3d 84 df e9 bd
       -0.019919684 0.29048488 0.08061448 -0.11419585
0000a0 c4 b3 3a 3e e1 aa 7b bd c2 e5 6e 3e e1 8d ba 3e
       0.18232638 -0.06144226 0.23329833 0.3643637
0000b0 b9 9c 84 3e 24 f3 82 be 73 f9 47 3e 82 63 64 3d
       0.2590082 -0.25576127 0.19528751 0.05575896
0000c0 48 8c 43 3e 8b 47 5c be 7a 03 bb be f1 c1 58 be
       0.19096482 -0.21511666 -0.3652609 -0.21167733
0000d0 c3 9a a1 be bf 51 93 3e c5 f5 ea 3d 8f 5f 1a 3e
       -0.31563386 0.28773305 0.11472658 0.15075515
0000e0 ac f7 fd 3d d7 19 77 bc 53 02 86 3e 15 03 7f be
       0.12400755 -0.015081844 0.26173648 -0.2490352
0000f0 e5 6c ae 3d d7 1d a8 be 4b 83 19 3e 99 0e 8d bd
       0.08516864 -0.32835266 0.1499149 -0.0688755
000100 15 38 cb 3d 58 f5 97 bd 27 4a a1 3e 69 2e 68 be
       0.09922806 -0.074198425 0.31501886 -0.22673954
000110 65 6b 9b be 2c 02 75 be ec 8b b0 3e 80 79 e0 3d
       -0.30355373 -0.2392661 0.34481752 0.10960674
000120 02 27 c0 3e de 05 9a be 2e bd f2 be e1 7f 9a be
       0.3752976 -0.300826 -0.47409958 -0.3017569
000130 80 64 a0 be 69 b7 08 3e 14 37 38 3e 1f 67 d3 3e
       -0.31326675 0.13351215 0.1798976 0.41289613
000140 f5 90 34 be e3 ae 7f be 63 47 62 3e 56 57 37 be
       -0.17633422 -0.24969058 0.22097544 -0.1790441
000150 0e 5f 95 3e f2 4a 71 bd 71 cf 5f 3e 23 1c a5 be
       0.29174083 -0.058909364 0.21856476 -0.3224803
000160 21 43 29 be 60 c6 1d 3e a1 56 cb 3d 18 57 59 bd
       -0.16529514 0.15407705 0.099286325 -0.053061575
000170 dc af 69 3e 67 11 c3 3e e4 5c ac be 25 c6 2b be
       0.22820991 0.38099214 -0.3366462 -0.16774805
000180 25 aa c8 3e 79 ca 22 be c7 26 c5 bd 72 9e c6 be
       0.3919231 -0.1589755 -0.09626537 -0.3879276
000190 f3 4a 83 be a7 51 0e 3e 5b 76 84 3c 72 cc a1 be
       -0.2564312 0.13898335 0.016169718 -0.31601292
0001a0 28 e7 b2 3d 06 ec 93 be 07 56 ba be 4c ce 4d be
       0.08735496 -0.2889101 -0.3639376 -0.20098227
0001b0 26 bd 91 be 39 55 80 be eb 78 fa 3e 8d 97 02 3d
       -0.2846462 -0.2506502 0.48920378 0.03188281
0001c0 e7 40 66 3e eb a7 c7 be be 51 25 be 34 2b 03 be
       0.22485696 -0.389953 -0.16144463 -0.1280945
0001d0 96 0b cc 3d c7 0f c2 be 07 26 4a be db 84 96 be
       0.09963147 -0.37902662 -0.19741069 -0.29398236
0001e0 5b ad bc 38 43 09 4e be 24 ca b6 bc b4 b5 47 be
       8.9968285e-05 -0.2012072 -0.022313185 -0.19502908
0001f0 ed 81 7a be f9 71 94 be 41 0a d5 bd 2e 76 9c be
       -0.24463625 -0.28993204 -0.104023464 -0.30558914
000200 7a e8 a8 3e 63 7c a9 bc a9 7c dc 3e 5e 62 10 3e
       0.32989866 -0.020689195 0.43063858 0.14100024
000210 f3 ba 9d be 54 9d a7 3e ab 36 0a be 46 a4 fd bd
       -0.30806693 0.3273722 -0.13497417 -0.12384848
000220 ce 4a a3 be 78 72 dc be a7 5e 1c 3e f1 14 b8 bd
       -0.3189301 -0.43056083 0.15270482 -0.08988369
000230 6e c0 27 3e 76 b6 97 be c3 8f 9e 3e 44 cc 9d be
       0.16382 -0.29631394 0.30969056 -0.30819905
000240 bd 9e ce bc 0a 9c b0 3d f9 b4 4d 3e 38 a7 a3 3e
       -0.025222177 0.08623512 0.20088567 0.31963515
000250 67 8e a9 3e e6 a4 ab be cc 48 d7 3d 01 bf c4 bd
       0.33116457 -0.33524245 0.10511932 -0.096067436
000260 dc 86 79 bd 1a e6 87 be e8 b7 93 3e f0 6d a2 be
       -0.060919628 -0.2654274 0.28851247 -0.317245
000270 dc fe 6e 3e ce 73 09 3e 4e aa 17 3e 24 04 56 be
       0.23339409 0.13423082 0.1481106 -0.20900017
000280 a0 89 bb 3e 12 b9 a3 3c 84 2c e6 3d 98 82 fb be
       0.36628437 0.01998571 0.112389594 -0.49123073
000290 58 51 d9 3d 58 7e c4 bc e6 60 96 be 8d 97 dd 3e
       0.10611218 -0.023986027 -0.29370803 0.43279687
0002a0 89 ba 04 3e c8 35 20 be e1 be 9d bd 8b 31 4c 3d
       0.12961783 -0.15645516 -0.07702423 0.049851935
0002b0 77 33 11 3e fc 16 27 3d 25 77 11 be 4d 7b a5 be
       0.14179789 0.040793404 -0.14205606 -0.32320634
0002c0 07 f5 96 be ab c2 56 3e 4d 97 c5 3e 24 32 aa be
       -0.29483816 0.20972697 0.38591996 -0.3324138
0002d0 98 b5 ff 3d 4e be 52 3e 1f ba a0 3b c7 46 b1 be
       0.12485808 0.20580408 0.004905 -0.3462431
0002e0 16 0d 78 3e 96 fd 82 3e a4 57 0e 3e 2c 24 eb bc
       0.24223742 0.25584096 0.1390062 -0.028703772
0002f0 b1 ba 7d be 4b bb 43 3d 25 1e e2 bc de 4a 16 be
       -0.24778248 0.04778604 -0.027602265 -0.14676997
000300 d5 d4 1d 3e ca 6c a3 3e 38 d1 cc bd fc 1b 27 be
       0.1541322 0.31918937 -0.10000843 -0.16319269
000310 cf 87 7e 3b cb 5f 8f bd 70 35 7a 3d af 9d 6d 3c
       0.0038838272 -0.07000693 0.06108612 0.014502927
000320 d1 4a d5 be 94 1c 67 bd 83 31 94 3e 19 a7 b9 3d
       -0.41658643 -0.05642374 0.28944024 0.090650745
000330 64 b1 b0 3a e0 6a 79 be 00 8f 88 be f9 b7 ac be
       0.0013480601 -0.24357176 -0.266716 -0.3373411
000340 70 59 83 bd fb aa 01 3e b9 98 04 3e a8 c7 0f 3c
       -0.06413543 0.1266288 0.12948884 0.008775629
000350 47 93 cc be 0f c8 65 be 6e 46 76 bd 7b 62 8f 3e
       -0.39956114 -0.22439598 -0.06012576 0.28004822
000360 19 c0 c0 3c 01 0f 36 be 41 01 54 3e 9d da 15 be
       0.0235291 -0.17779161 0.20703603 -0.14634176
000370 e6 4e b7 be 58 6d 92 3e b0 f1 7b be 91 a4 13 be
       -0.35802382 0.28599048 -0.24603915 -0.14418246
000380 6b 8a d7 be 1b 50 79 3e a2 a7 92 3e b8 8b 68 3e
       -0.42097792 0.24346964 0.2864352 0.22709548
000390 69 2c ac be 09 5f 09 bf dd 74 a2 be c2 8d 8c 3e
       -0.33627632 -0.5366064 -0.31729785 0.27451903
0003a0 5e 22 9b 3d 11 e8 ee 3d d9 36 6e 3e ca 98 0a 3c
       0.075749144 0.11665357 0.2326311 0.008459279
0003b0 8f 35 ee 3b c4 23 a0 be a0 d4 f6 be 2b 06 da be
       0.0072695683 -0.31277287 -0.48209095 -0.4258283
0003c0 f4 9c 1f 3e 49 16 ea bd 4a 40 0d bd f1 98 54 be
       0.15587217 -0.11430032 -0.03448514 -0.20761468
0003d0 99 64 02 be 66 59 ab be 21 69 9a be 38 21 3e 3e
       -0.12733687 -0.33466643 -0.30158332 0.1856736
0003e0 c9 48 16 be 16 57 9c 3e b4 74 da bd 3e 68 93 be
       -0.14676203 0.3053519 -0.106667906 -0.28790468
0003f0 d1 88 bb bd 1b ec 3f be e9 d2 13 be 80 f0 ab be
       -0.09156955 -0.18742411 -0.14435925 -0.33581924

model.lin1.biases f4 [3, 1, 40]
000000 c7 fa 3a be 5e 4b c4 3e 80 57 c7 be 12 f3 fb bd
       -0.18259726 0.3833875 -0.38933945 -0.12302221
000010 ef e5 25 3d 21 4a 99 be 7b 9e 8e be fd e9 5c 3e
       0.040502485 -0.29939368 -0.27855286 0.21573634
000020 88 c5 e5 3e 4a 2c 0c 3f bf 43 d4 3e 77 dd 71 be
       0.44877267 0.5475508 0.41457936 -0.23619638
000030 1d 31 76 be 9f a3 0c 3f 21 ee 3c 3e 53 10 8c bd
       -0.24042173 0.54937166 0.18450214 -0.06839051
000040 e0 fa 81 3d c0 d5 b5 be 10 a5 68 bd 17 30 fa 3e
       0.06346679 -0.3551464 -0.05679804 0.48864815
000050 54 16 7a bd 80 08 e2 3d 98 3b ab be 55 88 63 be
       -0.06105645 0.110367775 -0.33443904 -0.22219975
000060 df 02 a5 3d 27 a8 80 be 8f b2 f9 bb 21 26 89 3e
       0.08057188 -0.2512829 -0.007620163 0.26786903
000070 13 9f eb be be 10 44 3e d4 54 79 be 6c e8 05 be
       -0.46019801 0.19147012 -0.24348766 -0.13076943
000080 05 f3 97 3e ae 6d f5 3e da d9 2e be 9e 39 0b be
       0.29677597 0.4793524 -0.17075291 -0.13596198
000090 79 36 c7 be 14 11 89 be 6c 14 c2 be ae 28 37 be
       -0.38908747 -0.26770842 -0.37906206 -0.17886612
0000a0 94 b8 2e 3e 0c f4 e3 be 22 14 fe 3e 8c 29 b3 3e
       0.17062598 -0.4452213 0.49624735 0.34992635
0000b0 e7 b0 cb be 82 5d 38 be bf 45 43 3e aa b4 1f be
       -0.39783403 -0.1800442 0.19069575 -0.15596262
0000c0 55 3d 68 bd 90 29 f5 bd 05 f8 f4 3e de c6 47 be
       -0.056699116 -0.11970818 0.47845474 -0.19509456
0000d0 a7 4e e0 3e 2a e7 ad 3d 8a 70 28 3e dd 82 d7 3e
       0.43810007 0.08491357 0.1644918 0.42092028
0000e0 c4 9c 88 bd f8 99 25 be d6 79 5f bb c4 a1 ec 3e
       -0.06670526 -0.16172016 -0.003409972 0.46217167
0000f0 00 01 59 be 70 30 08 3e 89 c9 c6 be 36 3b 98 3e
       -0.21191788 0.13299727 -0.38825634 0.29732674
000100 e6 a8 8f 3e 17 a2 48 3e e4 39 30 3e fb a0 a0 bd
       0.28058547 0.19593082 0.17209584 -0.078432046
000110 2b fc ad 3e 5f 4b c6 be 62 c8 30 3d a5 61 65 3e
       0.3398145 -0.3872938 0.04315985 0.2240053
000120 97 09 00 3f 37 53 c9 3e 01 1f 61 be 2e 9c e7 3e
       0.5001463 0.393213 -0.21984483 0.45236343
000130 67 ed 54 bd fb 3a 96 3c 6b 72 b7 be 95 97 32 bd
       -0.051984217 0.018338671 -0.3582948 -0.04360159
000140 01 84 d1 3e c4 5a 83 3d 6d 0f 8e be 0b de 18 3e
       0.40921023 0.064137965 -0.27746144 0.14928453
000150 de 4a f5 bd 00 14 da 3e d9 42 b4 be ea 3a fe bd
       -0.119771704 0.42593384 -0.3520725 -0.12413581
000160 6a 3c ea be 0f 02 f6 bd 84 75 95 3e 81 38 eb 3e
       -0.45749217 -0.120121114 0.2919122 0.45941547
000170 bb f3 23 3e f0 48 06 3f 66 a6 f5 3d 71 89 ae 3e
       0.16010945 0.52455044 0.119946286 0.34089234
000180 e2 a4 b8 3e 7e 61 e6 3e eb b7 6b be 47 b3 eb 3e
       0.36063296 0.44996256 -0.23019378 0.46035215
000190 fa 89 b9 3e 14 f8 be be 3b b8 16 be b3 d9 97 be
       0.3623808 -0.37298644 -0.14718716 -0.2965828
0001a0 c5 de 91 3e c5 0b b8 be fa e9 3c 3e f5 09 3e 3e
       0.28490272 -0.3594648 0.1844863 0.18558486
0001b0 52 7f af be e5 08 5f 3e c0 49 30 3c 5c fc 56 3e
       -0.34276825 0.21780737 0.010759771 0.20994705
0001c0 95 a5 9a 3e 4d 2e de be e5 ed f2 3e ee a0 d3 3e
       0.30204454 -0.433947 0.47447124 0.41333717
0001d0 4f dd 7d 3e 23 29 e4 be 94 2d fb bd f2 7e 25 be
       0.24791454 -0.44562635 -0.12264553 -0.16161707

model.lin2.weights f4 [3, 40, 80]
000000 d9 ad bd bb b9 03 98 3d ac db 27 bc 0e 00 24 3d
       -0.0057885465 0.07422585 -0.010245245 0.040039115
000010 da 8d 72 bd 4a f6 8f 3d ee a6 19 3d d7 ee f2 bd
       -0.05921731 0.07029398 0.037512712 -0.11861961
000020 c1 bd 1c be f0 ad ff bd f8 af d8 3d 9a 49 54 be
       -0.1530676 -0.12484348 0.105804384 -0.20731202
000030 70 60 ce bd cc 6a b1 3d 4e 7a 9b 3d 79 81 94 3d
       -0.10076988 0.08662948 0.07591687 0.072512574
000040 4a ea 24 be 37 cf 07 be 83 5b ae 3d 4b 11 bc 3d
       -0.16104999 -0.1326264 0.08513548 0.09182986
000050 57 a8 b5 3c d1 ad 82 3d dd bc 77 3d 29 c4 0c 3e
       0.022174997 0.06380809 0.06048285 0.13746704
000060 df c8 40 bd aa 08 d4 bd 8d 3a ed 3d 34 1b f7 bd
       -0.047066566 -0.10353215 0.11583433 -0.120657355
000070 15 0a 75 bd e0 7d e3 3d dc c0 8f 3c 07 80 34 3d
       -0.059824068 0.11107993 0.017548017 0.04406741
000080 08 f9 c5 bd 4f 06 7f bc 48 28 09 3e 0c 80 b8 bd
       -0.096666396 -0.015565469 0.13394272 -0.09008798
000090 72 a2 b4 3b c6 e3 a9 3d 38 74 e9 bd c1 cd 59 3d
       0.005512529 0.082953975 -0.1139912 0.053174738
0000a0 3a 95 a0 bd 49 b0 0c bd 70 3b 8c bd 3d a6 dc bd
       -0.07840963 -0.034347806 -0.06847274 -0.10773895
0000b0 f0 4d e5 bd 4d ed ac 3d df eb e2 3b fc 2e 24 be
       -0.11196506 0.08443699 0.0069250907 -0.16033548
0000c0 a3 b0 a4 bd 46 0e 07 3e 41 ff 5a 39 5d b0 e3 3c
       -0.08041503 0.13189039 0.0002088519 0.027794058
0000d0 3e bd c1 bd 98 ce a8 bd b4 86 c3 bc 9d 8a 1d bd
       -0.09459923 -0.0824253 -0.023867942 -0.03846227
0000e0 ed bd 1b be 29 38 66 3d 77 6b 0c 3d 1d 53 78 bd
       -0.1520917 0.056205902 0.034282174 -0.060626138
0000f0 54 ea 61 bd dc ea c1 bb 44 f4 f1 3c 7e a4 6a 3d
       -0.055155113 -0.00591789 0.02953542 0.05728578
000100 fb 55 ae bd 35 45 fc bd 93 9d b8 3c 31 6d 95 3d
       -0.08512493 -0.12317888 0.022536075 0.07296217
000110 69 28 f4 bd cb 08 37 3e 94 bd a4 bd 31 9a 65 3d
       -0.1192177 0.17874448 -0.08043972 0.05605525
000120 1f 4f 1c 3d fb 0a 05 be 53 27 d0 3d e8 d4 7f bd
       0.038161393 -0.1299247 0.101637505 -0.062458903
000130 50 ad 32 be ec 97 59 bd da b9 ba bd 72 cc 4a 3e
       -0.17448926 -0.0531234 -0.091174796 0.19804552
000140 89 2d ce bc 21 c1 9b 3d 43 22 0d be 66 36 0d 3e
       -0.025168197 0.07605196 -0.13782601 0.13790283
000150 36 46 49 bd 36 da 99 bd 9a 3e fb 3c f3 61 d4 3d
       -0.049139224 -0.075123236 0.0306695 0.10370245
000160 26 e8 40 3e 56 cd b0 bd 18 10 36 bd 6d 05 de 3c
       0.18838558 -0.08632915 -0.044448942 0.027102197
000170 e1 47 70 3d 01 e6 45 3d 7a 13 d2 3d bb e8 44 bc
       0.0586623 0.048315052 0.10257621 -0.012018378
000180 69 76 07 3e ca 0a 2a 3e 7f 30 01 bd 3e 3a e4 3d
       0.13228764 0.16605678 -0.03154039 0.11143921
000190 cc c0 c7 3d cf 6a 16 3e 5e 23 af bd 09 9c 95 bd
       0.0975357 0.14689182 -0.08551668 -0.07305152
0001a0 b7 0e 38 bd 53 e2 cc 3c fd b1 11 3e db 09 ae bd
       -0.04493591 0.025010264 0.14228053 -0.084979735
0001b0 56 6d fc 3d 1c 6d 38 bd db 15 06 3e 1a ae 3e 3c
       0.12325542 -0.04502593 0.13094275 0.011638189
0001c0 a6 69 ca bd bc 6e 75 bd 26 79 b0 bd 49 41 e8 3d
       -0.09883432 -0.059920058 -0.08616857 0.11340577
0001d0 26 28 b8 bd 31 54 22 bd 75 b8 96 3d a5 9e 38 bd
       -0.08992033 -0.039631072 0.07359401 -0.04507317
0001e0 6a cd 88 3d 09 a0 16 be bb d6 f7 bd 6f 76 21 be
       0.066798046 -0.14709486 -0.121015035 -0.15767835
0001f0 af 12 1f bd 27 68 75 bd 48 51 3a 3d b9 d4 8e bc
       -0.038836177 -0.05991378 0.045487672 -0.017435418
000200 a4 21 b3 3d 45 e1 1d 3e 7e 67 b8 3d 9a 09 14 bd
       0.08746651 0.15417965 0.090041146 -0.03614197
000210 e1 9b 17 be 3d 77 cb 3d 14 70 a0 bd 01 43 c6 3d
       -0.14805557 0.09934852 -0.07833877 0.09680749
000220 17 ff ec 3d 20 dd 9d 3d 2e 96 49 3e 7d 1f 39 3e
       0.11572092 0.07708192 0.19686195 0.18078418
000230 4e b7 7a 3d a7 aa 70 bd 68 a1 18 3e 1e 18 92 bc
       0.06120997 -0.058756497 0.14905322 -0.017833766
000240 95 63 82 bd d5 ec fb 3d 05 ce 07 3e 30 25 9d 3d
       -0.0636665 0.123010315 0.13262184 0.076731086
000250 13 d9 89 3c d5 a5 0c be 5a 2d fa 3c a2 28 22 3e
       0.016827142 -0.13735135 0.030539203 0.15835813
000260 cc e1 43 3d 24 85 f8 3c 3f 3d 05 bd 6f 5a 9b bb
       0.04782276 0.030336924 -0.032529112 -0.004741005
000270 2c f2 03 3e 5a 9c 4a 3d 07 6a f5 3d ab 97 9c bd
       0.1288535 0.049465515 0.11983114 -0.07646116
000280 b5 e6 11 3e 25 c0 95 3c 83 f4 19 bd c0 f3 9b bc
       0.14248164 0.018280098 -0.0375867 -0.019037127
000290 33 eb ca 3d 98 ac 33 3e d1 1b d5 3d 5a fd 06 be
       0.09908142 0.17546308 0.10405696 -0.13182583
0002a0 25 fb 19 be 99 f9 35 bd ae 01 ec bb 20 70 9e bd
       -0.1503721 -0.044427488 -0.0072023487 -0.0773623
0002b0 a2 ad 9a bd bf 7a 0b be 80 f3 3e 3d 14 7e 98 bd
       -0.07552649 -0.13621043 0.04661894 -0.074459225
0002c0 32 20 21 be e3 06 a8 bd fb 32 9b bd 7b 18 e5 bd
       -0.15734938 -0.082044385 -0.07578083 -0.1118631
0002d0 e4 aa 00 3e be 92 8e 3d d8 18 00 3e 6d 59 31 bb
       0.1256519 0.069615826 0.12509477 -0.0027061359
0002e0 e8 9b 02 3d 76 84 4a 3d c5 c1 1d be b5 4b 8c 3c
       0.031886965 0.04944273 -0.15405948 0.017125944
0002f0 70 e7 39 bd a9 68 34 be 73 78 31 be c1 9f a4 3d
       -0.04538673 -0.1761805 -0.17331104 0.08038283
000300 9c ff a0 3d ab e2 99 3d 1b c7 28 3e 87 8c 08 be
       0.078612536 0.075139366 0.16482203 -0.13334857
000310 f9 e5 08 bd 96 22 70 3d eb 9c 2a bd 18 52 5f bd
       -0.033422444 0.058626734 -0.041653555 -0.05452165
000320 3f 96 bd bd 3b ae a6 3d 0a b1 c3 bd b8 b9 28 bb
       -0.09257173 0.081387006 -0.09555252 -0.0025745463
000330 8d cb 00 3e 5f d5 b0 bd e8 6a b5 bd 49 b4 8c 3d
       0.12577648 -0.08634447 -0.088582814 0.06870324
000340 c3 d3 94 bd 06 36 fd bc 7a 96 81 3c c7 f6 a4 bd
       -0.07266953 -0.03090955 0.015818823 -0.080548815
000350 83 a9 e7 bd 5e b9 ba bd c8 8d 33 bd a7 c2 b6 bd
       -0.11311629 -0.09117387 -0.043836385 -0.08923846
000360 74 1a 09 be 27 cc 3c 3d ec bf c5 3c bf d9 1c be
       -0.13388997 0.046093132 0.024139367 -0.15317439
000370 fe f0 0e be e6 8d 36 be 82 ad d6 bd bc b5 5b bd
       -0.13959119 -0.17827567 -0.10482313 -0.053640112
000380 01 19 4f be 09 87 05 bd 7d 41 55 be 07 b7 6e bd
       -0.20224382 -0.032599483 -0.20825763 -0.058280017
000390 88 27 c4 bd 8e 85 b0 bb ae bf b9 bd f2 27 c0 bd
       -0.095778525 -0.0053870147 -0.09069763 -0.09382619
0003a0 bd 25 02 3e f5 76 cf bc c6 c5 6e 3d 9c e1 41 be
       0.12709709 -0.025325278 0.05829408 -0.1893372
0003b0 e9 d8 4b be e4 8a da bd e3 ed c9 3d 21 f3 9f 3d
       -0.19906963 -0.106710225 0.098598264 0.07810045
0003c0 fa 13 f7 bd 70 e6 42 bc 7b 02 0d be 70 e9 be bd
       -0.12064357 -0.011895761 -0.13770477 -0.093218684
0003d0 55 15 32 bd 28 d7 b5 3d 05 50 b2 3b 5a 25 f5 bd
       -0.043477375 0.088789284 0.005441668 -0.11970015
0003e0 14 0a 89 3d 8b f0 c5 bd 26 ae a0 3d be b8 0d bd
       0.066913754 -0.096650206 0.07845716 -0.034600012
0003f0 ed e9 30 bc 17 85 be bd a6 ff f0 3d 58 4a fe bc
       -0.01079796 -0.093027286 0.11767511 -0.03104131

model.lin2.biases f4 [3, 1, 80]
000000 4c 5c 45 3e a3 0b 03 3e de e0 52 3c 7e ad 33 3e
       0.1927349 0.12797408 0.012870995 0.17546651
000010 68 52 09 b9 26 18 d6 bc 1d c6 4a 3e bd 19 b4 3d
       -0.00013096037 -0.026134562 0.19802137 0.08793972
000020 9d 6f 27 3e 8a 32 36 3d 8a 18 cc bd 94 16 47 3e
       0.16351171 0.04448179 -0.09965618 0.19442207
000030 c1 55 c9 3d b2 d5 13 3e 82 39 56 3c 86 7e 11 3e
       0.098308094 0.14436987 0.013075234 0.14208421
000040 17 fb 77 bd ff a9 ae 3d 11 14 32 3e c3 b9 0a bd
       -0.060542192 0.08528518 0.17390467 -0.033868562
000050 23 92 5b 3e 64 39 d0 3d f5 94 e3 3d eb e8 3d 3e
       0.21442465 0.101671964 0.11112396 0.18545882
000060 67 85 41 bd 43 b5 6a 3b 42 75 0e 3e 3b dd cf bc
       -0.047246363 0.0035813607 0.13911918 -0.025374046
000070 f3 9d 7c bd f9 85 04 3e 85 59 b0 bd 11 2f 67 bc
       -0.06167407 0.12941732 -0.086108245 -0.014110343
000080 1e 2a b4 3d 52 db 27 3d 0a 99 78 bd 96 81 9b 3d
       0.08797096 0.040980645 -0.060692824 0.07593076
000090 29 3a 36 3e a0 c5 cd bd d5 75 01 3e 59 9b cf 3d
       0.17795624 -0.100474596 0.12642606 0.10137052
0000a0 55 f8 0b bd 66 9d 0b be 74 4c 4b bd 13 a8 14 3e
       -0.034172375 -0.13634261 -0.04963346 0.1451724
0000b0 26 89 25 bd 19 04 53 bd cc 00 6d 3d a1 c9 29 3e
       -0.040413998 -0.05151758 0.057862088 0.16580822
0000c0 84 51 c4 3b 7e 30 58 3e 81 ec 50 3e 25 c6 5d 3e
       0.0059911627 0.21112248 0.20402719 0.21657617
0000d0 5c 37 b9 bd ba fe 19 bd 0a bd 17 be a8 04 10 3a
       -0.09043762 -0.03759644 -0.14818206 0.0005493858
0000e0 d9 a1 08 bd 81 79 f6 3d 44 a1 81 3d 13 2e 4c 3e
       -0.033357475 0.12034894 0.06329587 0.19939451
0000f0 26 a0 5d bd db af 3f bd 1d 34 b9 3c cd b1 c5 3d
       -0.054107808 -0.04679857 0.022607857 0.096530534
000100 db 2c 42 3e a1 24 ba bc aa 1b 39 3e 65 e4 14 3c
       0.18962424 -0.022722544 0.18076959 0.009087657
000110 95 12 12 bc dd 68 b4 bc e6 4b 57 bc 6f 27 2c bc
       -0.008915563 -0.022022659 -0.013140654 -0.010507449
000120 f9 4a e7 bd 71 20 0e 3d cc 13 64 bd 23 45 58 bd
       -0.11293597 0.034698907 -0.055682942 -0.05280031
000130 20 14 a9 bc 45 95 f3 bd 54 d2 9b 3c 0b f5 0e be
       -0.02063948 -0.11893705 0.01902119 -0.13960664
000140 5a 6b 2e 3e 32 ac d2 3a a6 8c a7 3d 7f 7f 8e bd
       0.17033139 0.0016073047 0.081811234 -0.06957912
000150 4b fc 66 3d 6b 6c dc bd e5 4f 96 3d 47 8c 22 3e
       0.05639295 -0.107628666 0.073394574 0.15873824
000160 64 cb 17 be e2 06 f6 3d c3 0b a4 3d df 1e 72 bd
       -0.14823681 0.120130315 0.08010056 -0.059111472
000170 ef 19 a4 bc f4 61 64 3e b3 34 32 bd 30 35 46 3e
       -0.020031897 0.22302991 -0.04350729 0.19356227
000180 9e fe b6 3d 1f 39 01 3e df df 14 ba 73 55 9d 3d
       0.08935283 0.12619446 -0.00056791113 0.07682314
000190 50 87 04 3e ab cc 49 3e b1 63 1e be 5c 0b 84 3c
       0.12942243 0.19706981 -0.15467717 0.016118698
0001a0 8d 7f b4 3b 33 b3 f9 bd 54 a9 a0 3c 52 c3 18 3e
       0.0055083693 -0.12192383 0.019611992 0.14918259
0001b0 45 1e 20 3e 7f f9 a6 bd 6e 45 0b 3e eb 51 bf bd
       0.15636547 -0.08153056 0.13600704 -0.093417965
0001c0 7b ba 19 3e 5f f6 96 bd fe 8c be bd ce 5d db 3d
       0.15012543 -0.0737121 -0.09304236 0.10711251
0001d0 ab c1 c3 3c 6b 87 a0 3d a9 cf 57 3e 21 0b 56 3e
       0.023896059 0.07838329 0.2107531 0.20902683
0001e0 7a 0b 11 3e b0 1b 13 bd 7c 38 9a bb 2f 9f 90 3d
       0.14164534 -0.035915077 -0.0047064405 0.07061612
0001f0 6a 38 21 be 60 32 48 3e a5 31 27 3e 31 4d cc bc
       -0.15744177 0.19550467 0.16327532 -0.024939151
000200 3d 1e a8 3c a7 60 19 bd 0f 95 87 3d 35 52 37 3d
       0.020522231 -0.03744569 0.066202275 0.044756133
000210 6b 87 60 bd 59 75 fa 3d 88 83 c6 3d cc 46 4c 3d
       -0.054816645 0.122294135 0.09693056 0.049872205
000220 00 92 1c 3e ea c8 1a bd df c9 01 be 19 68 02 3e
       0.1529007 -0.037789263 -0.12674664 0.12735023
000230 b0 a1 a7 bd de cf 51 3d 16 fd c3 3b a0 c2 08 3e
       -0.08185136 0.05122363 0.005981098 0.13355494
000240 78 9f 32 3d a0 2b e9 bc b6 f8 0a be d9 0c a2 3d
       0.043609113 -0.028463185 -0.13571438 0.07912607
000250 b5 a4 36 bd 58 b8 9e 3d 36 5f 11 3e 05 23 fe bd
       -0.04459067 0.077500045 0.14196476 -0.12409023
000260 ba eb f1 bd ce 7a 51 3b 2d 1b c3 bd b0 00 b7 bd
       -0.118125394 0.0031964066 -0.09526668 -0.08935678
000270 49 84 28 3e 5f 9e 16 be 19 ee 46 3b a2 99 97 bd
       0.16456713 -0.14708851 0.003035432 -0.0740235
000280 5c b7 84 3d 36 30 64 3d 4b f1 86 3d 50 ec 94 3d
       0.064802855 0.05571004 0.06588992 0.072716355
000290 d6 61 11 bc 5d 7c 42 bd e5 bb 27 3e 29 ef f3 3c
       -0.008873424 -0.047481883 0.1638027 0.029777126
0002a0 6e de 91 3d f6 67 c4 bd df 87 fb bd c7 55 cc bd
       0.07122503 -0.095901415 -0.12281775 -0.09977298
0002b0 37 2a 5a bd 05 1b 2d 3d 12 d7 1d bd 57 31 5c 3d
       -0.053262915 0.042262096 -0.038535185 0.05375799
0002c0 fc 76 49 3e 6b 8b 01 3d 69 62 ad 3d 5c 75 d5 bc
       0.19674295 0.0316271 0.08466036 -0.026056938
0002d0 3c 06 c7 3d 8d 0f d9 3d 95 9d 44 bc 4d 37 64 3d
       0.09717986 0.10598669 -0.012000461 0.0557168
0002e0 1b cd 03 bc 3a 57 0a bd 6c 47 6a bc 37 c2 ba bd
       -0.008044506 -0.033774592 -0.014299255 -0.09119075
0002f0 1e 81 28 3e a0 e8 ca bd 65 ee 1e be 1f a0 ab bd
       0.16455504 -0.09907651 -0.15520628 -0.0838015
000300 b5 0b 86 3d 89 a4 8e ba c4 73 02 3e 13 9c ef 3d
       0.06545202 -0.0010882776 0.12739474 0.11699691
000310 05 28 04 3e 89 1e ba bd dd a8 0b 3d 30 59 fe 3d
       0.12905891 -0.09087855 0.034096587 0.12419355
000320 aa d2 ce bd f1 98 bf 3c bd 14 86 3c a5 39 c4 3c
       -0.10098775 0.023388358 0.01636731 0.023953268
000330 dc 2d dc 3d 29 67 43 3e 06 16 44 3e 74 3d db 3c
       0.107509345 0.19082321 0.19149026 0.026762702
000340 48 09 db 3d cf 77 c1 3d 81 34 c3 bd 46 1a 10 3e
       0.1069513 0.0944668 -0.09531499 0.14072523
000350 0a 59 92 3c 80 80 bb 3d 54 88 67 bd de 16 2b 3e
       0.017864723 0.09155369 -0.056526497 0.16707942
000360 c5 7c 1f 3d ca ea 88 3d 1c 05 e1 bd 9c 5d 11 3d
       0.03893735 0.066854075 -0.10987303 0.035489663
000370 d8 0d 03 bd eb 54 30 3e 57 70 eb bd e9 d9 a5 bc
       -0.031995624 0.17219894 -0.114960365 -0.02024551
000380 26 27 cd bc 35 85 9e bd 42 17 dd 3d be f1 81 bd
       -0.025043081 -0.07740251 0.10795452 -0.06344937
000390 24 d7 e6 3d 80 32 82 3d 97 68 9d bd eb ee 81 3c
       0.112715036 0.06357288 -0.076859646 0.015860995
0003a0 0c 28 89 3d 85 81 b3 bc 79 cf 99 bd 53 57 33 bd
       0.066970915 -0.021912346 -0.075102754 -0.04378445
0003b0 c9 c6 8d 3d 6f 2a ab bd ca f0 c0 3d c1 1f 12 3e
       0.06922681 -0.08357703 0.09420927 0.14269926

model.lin3.weights f4 [3, 80, 120]
000000 7a d4 03 3e 35 06 f3 3d f7 02 22 bc 98 e8 de bc
       0.12874022 0.11866418 -0.009888402 -0.027210519
000010 4c 94 62 3d 99 e6 d0 3c 91 4d 90 bd 3d 91 65 3d
       0.05531721 0.025500583 -0.070460446 0.056046713
000020 31 5c db 3d 82 0c 98 bd 40 d2 c3 3d 27 c1 9b bd
       0.107109435 -0.07424261 0.095615864 -0.076052
000030 31 f1 00 3e 33 aa ec 3c ee f0 9d 3d 30 94 77 3d
       0.12592007 0.028889751 0.07711969 0.060444057
000040 a8 85 9f 3d 5a b6 0d 3e ca e4 c9 3c 23 a9 9b bc
       0.07789165 0.13839093 0.024645228 -0.01900155
000050 a9 fb 22 bd e2 20 e9 3d 50 3b 9f bd 72 42 0d bd
       -0.039790783 0.11383225 -0.07774985 -0.034487195
000060 c8 2b d4 bd 59 90 e9 bc cd 6a 44 3d a8 79 cf bd
       -0.10359913 -0.028511213 0.047953416 -0.10130626
000070 81 70 02 3d 94 10 fe 3d 25 11 d4 bc 93 95 0a 3c
       0.031845573 0.12405506 -0.025887081 0.008458513
000080 db 96 58 3d 1a 6c bc bd b4 61 6c bd d3 6a a4 3d
       0.052878242 -0.09200306 -0.057710364 0.080281876
000090 7e 22 04 3d be cb 26 bd bb 65 37 3e 80 74 26 bd
       0.032259457 -0.040721647 0.17909901 -0.040638447
0000a0 93 ef 42 3c f3 ba 11 3e 18 a6 a5 3d 8a 40 74 3d
       0.011897939 0.14231472 0.080883205 0.05963186
0000b0 a8 de b0 bd 47 db 2a bd fa 7c cf 3d b4 25 88 3b
       -0.08636218 -0.041713025 0.10131259 0.004154885
0000c0 26 81 2f 3d db 2b 65 3d 4c 00 8e bd 4d 93 a8 3c
       0.042847775 0.055950027 -0.069336504 0.020578051
0000d0 ed 47 7c bd aa 84 37 bd b7 30 f0 3d 7c 20 00 bc
       -0.06159203 -0.044804253 0.117280416 -0.007820245
0000e0 40 d8 96 bd b4 48 1b 3d 82 ce 00 3e 87 32 37 bc
       -0.07365465 0.037911132 0.12578776 -0.01118148
0000f0 49 f9 18 3e a4 cc 7c 3d d3 6d 93 3d 2e f3 9e bd
       0.14938845 0.061718598 0.07198682 -0.077612266
000100 83 bd 6d bc 65 bb be 3d 1d 5c 2e bc 63 95 43 3d
       -0.014510515 0.093130864 -0.010642079 0.04774989
000110 d4 8e be bc 28 c0 1b 3e bf c7 c1 3d 54 6e 91 be
       -0.023261465 0.1521002 0.09461927 -0.28404486
000120 15 12 62 bb 5d 65 cf 3d 62 04 d3 bb 1a db 1c bd
       -0.003449564 0.101267554 -0.0064397315 -0.03829489
000130 f6 46 3a 3d cd 70 b3 3d 0b 7c be 3c 49 67 4c bd
       0.04547783 0.087617494 0.023252508 -0.049903188
000140 cd 00 b0 bd b4 b6 5a 3e f6 53 87 bc af c7 a1 3d
       -0.08593903 0.21358758 -0.016519528 0.07899415
000150 ec 31 b0 3d 9c 84 80 3a 8b 3f ac 3d f1 41 77 bc
       0.08603272 0.0009805146 0.08410557 -0.015091405
000160 09 42 ed bc 31 52 24 bd 82 bd cb bd 45 52 8d 3d
       -0.028962152 -0.040117446 -0.09948255 0.06900457
000170 7e 8f a5 bd f1 41 84 3d 3a fa db 3c fb fa a0 3d
       -0.080840096 0.0645789 0.026852716 0.07860371
000180 34 ff cd 3b 36 92 d3 bc a1 99 c4 3d 2e f4 b4 3c
       0.006286526 -0.025826555 0.09599615 0.02208909
000190 98 bc 78 3c 1c 61 5f bd e7 ae df bd 96 78 c9 3c
       0.015181683 -0.05453597 -0.10922032 0.024593633
0001a0 e3 39 13 bc ec 64 8b 3d 71 00 68 3d 48 45 23 3e
       -0.008985969 0.06806359 0.056641046 0.15944397
0001b0 92 89 88 bc 52 04 cb 3d 7c f3 08 3e 9a 84 ff 3d
       -0.016667161 0.099129334 0.13374132 0.124764636
0001c0 c1 01 ca 3d c6 c0 13 bd 97 7f a5 bd a5 fe 15 3e
       0.09863616 -0.036072515 -0.080809765 0.1464792
0001d0 b6 99 fd 3d ec 54 ac bd 8f 72 a9 3d 07 9f 7f bd
       0.12382834 -0.08414635 0.082738034 -0.06240752
0001e0 b2 37 bb 3c a1 f3 98 bd e7 ab b9 3d d4 03 b1 bd
       0.022853706 -0.074683435 0.09065991 -0.08643308
0001f0 ad f8 c9 bc 73 94 1a 3e 70 a4 25 bd 63 3e fa bc
       -0.02465471 0.15095691 -0.040440023 -0.030547326
000200 98 bb f1 3d 88 a7 90 bd cc db 8a 3d 20 27 a5 3d
       0.11803359 -0.07063204 0.06780204 0.08064103
000210 f1 a2 a1 3d b1 31 9e bd f5 cf cf 3d 1a c6 ba 3d
       0.07892407 -0.07724322 0.101470865 0.09119816
000220 3b 42 2a bd 57 c9 88 bd 1e a8 77 3c e6 30 b1 3d
       -0.04156707 -0.066790275 0.015115766 0.08651905
000230 95 2c 8f 3d ba 2f 5c 3d 56 e9 5d 3d ac 6c 07 3e
       0.06990925 0.053756453 0.054177605 0.13225049
000240 a8 f8 18 3c 57 aa 7a 3d 88 b1 ae 3d f8 8f b5 3c
       0.009336628 0.061197605 0.08529955 0.022163376
000250 7f 1e f9 3c 96 d4 01 3e 0d 5b 8f 3d 80 c5 f7 3d
       0.03041005 0.12678751 0.069997884 0.12098217
000260 f6 30 32 bd f9 07 70 bd ad cf d1 bc 64 1e 9b bd
       -0.043503724 -0.058601353 -0.025611723 -0.07574156
000270 7e 32 93 bc 53 38 e1 3d 95 49 3f 3d 8a f8 0d bd
       -0.017968412 0.10997071 0.046701033 -0.034660853
000280 63 cc fd bb 9e d9 47 bd 45 0f ff bc 03 19 24 3d
       -0.007745312 -0.04879152 -0.03113521 0.040062916
000290 c6 66 1b bd 8a 6d e9 3c 4d bb db 3d 02 8b ea 3c
       -0.03793981 0.028494615 0.10729084 0.028630737
0002a0 7d 35 95 3d 6b fd 98 bd 18 88 da 3c c1 ed e0 bd
       0.07285593 -0.07470211 0.026676223 -0.10982848
0002b0 d0 91 bc 3c 1f df 5e bd e2 43 fb 3d 56 5a cc bd
       0.023018748 -0.054412004 0.12268807 -0.09978168
0002c0 eb 53 ac 3c b6 f7 88 bd 59 8a 79 3d 39 f8 b5 3c
       0.021036109 -0.06687872 0.060922954 0.022213088
0002d0 89 bd 2a 3c 83 bb 31 bd b9 cf b0 3d c4 82 0e 3c
       0.010421165 -0.043391716 0.0863337 0.008698169
0002e0 e8 a4 5d 3d d2 c2 2b 3c 43 06 4a bd 61 3a d3 bc
       0.054112345 0.0104834605 -0.049322378 -0.025784673
0002f0 7e 49 00 3e 0e 1d 0a 3e 18 c3 54 bd 2a ba 91 bb
       0.12528035 0.13487646 -0.05194387 -0.0044472413
000300 81 e4 1c 3d 98 fe c9 3d e0 a0 7f 3c 7f 5b ba 3c
       0.038303856 0.09863013 0.01560232 0.022748707
000310 49 18 16 bc 4e 1c 8d 3c 22 83 90 bd 55 e0 aa bd
       -0.0091610635 0.01722541 -0.070562616 -0.08343569
000320 a4 4f c9 bd a1 90 62 bd da 05 9f bd 2e 76 9b bc
       -0.09829643 -0.05531371 -0.07764788 -0.01897725
000330 8b 8e bf 3d 68 a5 62 3d b2 92 7d bc 95 72 01 bc
       0.0935336 0.055333525 -0.015476869 -0.007900854
000340 3f 7a 0d 3e d1 af 65 3d 4a 0a 75 3d 61 19 d4 bc
       0.13816164 0.056075875 0.059824266 -0.025891008
000350 5a e7 cc bd d8 fc 1f bd 67 0b a3 3b e4 3a f9 bc
       -0.10005064 -0.03905949 0.0049757245 -0.030423589
000360 00 0c 7a bd 77 70 b9 3d 36 f6 87 bd 74 47 0a 3d
       -0.0610466 0.09054654 -0.06638758 0.03375955
000370 83 ae 02 3d a0 90 97 ba 45 5c 6e 3d 41 2d d3 3c
       0.03190471 -0.0011563487 0.058193464 0.025778415
000380 66 8e 18 bd 8d 3c 46 bd d2 3a 37 bd 84 73 a4 bd
       -0.037245177 -0.04839759 -0.04473383 -0.08029845
000390 9e 53 71 3d 81 c8 08 3e 62 40 08 bc 02 e3 4d 3d
       0.058917634 0.13357736 -0.008316131 0.05026532
0003a0 69 ec 67 3d a7 89 7c 3c d9 2e 7e bd ba fb 14 bd
       0.056621943 0.015413678 -0.062056396 -0.036372878
0003b0 a6 dc 1d 3e ba 74 40 3d 82 9a 1b 3e f4 1b dd 3d
       0.15416202 0.04698632 0.15195659 0.10796347
0003c0 d1 79 81 3c 41 45 d9 3d 7c a4 b9 3c d7 11 c9 3c
       0.015805157 0.10608912 0.02266144 0.02454464
0003d0 28 bc 37 bd 6a 43 f5 3d 95 1f 33 bc 1c 71 24 3d
       -0.044857174 0.11975749 -0.010932823 0.040146932
0003e0 d2 c4 8b bd 86 09 bb 3c 23 b1 b1 bc 9f e4 de bb
       -0.0682465 0.02283169 -0.02169091 -0.006802156
0003f0 08 c9 c1 3c 19 c5 29 3d 2b 8c 95 3b f7 34 3d 3d
       0.02365543 0.041447733 0.0045638285 0.04619309

model.lin3.biases f4 [3, 1, 120]
000000 4c f7 e5 bc ee e5 09 3d 3e 34 81 3d f1 b5 01 3e
       -0.028072022 0.033666544 0.063087925 0.12667061
000010 51 b5 b3 3d 77 1a 19 3e 31 71 50 bd 01 25 13 3e
       0.08774818 0.14951502 -0.050889198 0.14369585
000020 fa ae 38 3d 1a 42 da 3c c5 de c1 3d c7 52 3e 3d
       0.045088746 0.026642848 0.09466318 0.04646566
000030 24 61 fa 3d f1 35 32 bd f0 41 df bd a5 59 04 3e
       0.12225559 -0.043508474 -0.109012485 0.12924822
000040 37 20 01 3e dd c7 b1 3d 9a d8 20 3d ea 06 21 3c
       0.12609945 0.08680699 0.039269067 0.009828309
000050 a3 af 15 bc 80 a4 04 3e 4e fc 7f 3d 04 43 14 3d
       -0.009136113 0.12953377 0.062496476 0.036196724
000060 fb f0 b2 3d 69 d2 ce 3d dd 15 ac 3d e3 e9 ca bd
       0.087373696 0.10098726 0.084026076 -0.099078916
000070 e9 5d ec 3d f3 79 87 3d c8 6e ad bd 2f db 9d 3d
       0.115413494 0.06615057 -0.084683955 0.077078216
000080 13 e1 6d ba 8b e5 9e bd 24 d1 00 3e 88 e3 4a bd
       -0.0009074371 -0.077586256 0.12579781 -0.049533397
000090 eb e0 36 bd 2d c5 dc bc 0d 21 ae 3d d8 42 a4 bd
       -0.044648092 -0.02694949 0.08502398 -0.08020562
0000a0 08 55 f4 bc a0 e5 e4 3d b6 4d 0a 3d b7 7b 79 3c
       -0.029825702 0.1117661 0.033765517 0.01522725
0000b0 3a 5c 3b bc a1 7c 81 3d 4e 40 e1 3c 90 93 72 bd
       -0.011435563 0.06322599 0.027496483 -0.059222758
0000c0 0c 73 57 bd 8f 91 53 bb 90 3d f5 3a d8 e4 1d 3c
       -0.05259995 -0.0032282805 0.0018710364 0.00963708
0000d0 32 80 54 bc d8 fb db 3d 5a 54 e4 3d 32 37 57 bd
       -0.012970017 0.10741395 0.11148901 -0.052542873
0000e0 63 f3 45 bc 10 c9 a7 3c e3 7d 84 3d 16 d0 35 bb
       -0.012081954 0.020481616 0.064693235 -0.0027742437
0000f0 31 a4 8b bd 2c 11 d7 bd 17 7b 85 bd 8c b0 72 3c
       -0.068184264 -0.10501322 -0.06517618 0.0148126
000100 34 19 a2 3c 1e 7b 2e bd e1 ec c3 3d 55 1f 88 bc
       0.019787408 -0.042597882 0.095666654 -0.016616503
000110 a1 ac e8 3d 57 10 d9 3d 75 ba c5 bd 10 d7 95 bd
       0.11361051 0.1059882 -0.096547045 -0.073164105
000120 41 ad b3 bc 7d e3 c5 bd 2d ed c6 bd 78 0e eb 3d
       -0.0219332 -0.096625306 -0.097132064 0.11477369
000130 14 25 24 3d 73 f9 4c 3d 8a 28 36 bd 30 10 0a bd
       0.040074423 0.05004258 -0.044472255 -0.033706844
000140 b4 78 eb bd 15 5b e7 3d 87 f1 9c bd 4e c0 50 bd
       -0.11497632 0.112966694 -0.07663255 -0.050964646
000150 48 08 39 3c ea 4d ac bd e2 c4 91 3d 98 7b 8a bd
       0.011293478 -0.084132984 0.071176305 -0.06761855
000160 79 fb d8 3d 8a b6 99 bc 47 1c 6c bd 0b 42 f9 3d
       0.105948396 -0.0187638 -0.057644155 0.121708
000170 fd b9 d8 bc 0d 3a 88 bd c0 0a 10 3c 48 b4 9c 3d
       -0.026455874 -0.06651697 0.0087916255 0.076515734
000180 54 86 b6 3b fb 49 13 3d f2 2e 87 3c f7 09 77 bd
       0.0055702124 0.035959225 0.016501877 -0.060312238
000190 f0 d3 32 3d cd 61 fd bc 5f 3c 8d 3d 6e 30 8d 3d
       0.04365915 -0.030930424 0.068962805 0.06894003
0001a0 b7 9a ae bc 03 b9 3c 3d 67 7c ab 3d 98 67 a4 bc
       -0.021314008 0.04607488 0.08373337 -0.020068929
0001b0 3a 0f e6 3b 21 6f 6d 3d 7c ad 1f 3e 09 03 e9 bb
       0.007020858 0.05796731 0.15593523 -0.0071109575
0001c0 4d 69 24 bc e3 09 38 bb 40 d1 aa bd 6c 4d 63 bd
       -0.010034871 -0.0028082065 -0.083406925 -0.055493757
0001d0 a1 43 1a bd e4 d6 79 bd 2f 57 a4 3d c9 01 d9 3d
       -0.037662152 -0.06099595 0.080244415 0.105960436
0001e0 cb 12 9b 3d e5 0f e1 bd 18 45 70 3d e9 9e 16 3e
       0.07571944 -0.1098936 0.058659643 0.14709057
0001f0 e0 4a d2 bc a2 52 84 3d 59 2e ca bd 67 7c 49 3e
       -0.025670469 0.064610735 -0.09872121 0.19676362
000200 23 b2 d8 3d 43 a3 b7 3c db 0a 54 bd 32 b8 f2 3d
       0.10580852 0.022416716 -0.051768165 0.11851539
000210 88 dd e0 bd fd 41 80 3d 6e 1d 21 3d 63 69 af bd
       -0.10979754 0.06262586 0.039334707 -0.08565023
000220 b5 b1 f1 3b aa d0 84 3c e6 15 34 3d 5a 7b f2 3d
       0.0073759207 0.01621278 0.043966196 0.11839934
000230 54 c1 0f 3e 72 a8 92 3d 84 fd 26 3d 2d 4e 08 bd
       0.14038593 0.07161035 0.040769115 -0.03327768
000240 44 5d d2 bc 5b 33 65 3d 5f 8e 49 bd ca 04 93 3d
       -0.025679238 0.05595718 -0.04920804 0.07178648
000250 23 a5 a6 3d 29 c3 19 3e 59 b8 db 3d 69 47 02 bd
       0.08136966 0.15015854 0.10728521 -0.031806383
000260 10 b3 71 bd 48 a1 44 3c 59 60 d9 bb 27 75 af bb
       -0.059008658 0.012001343 -0.0066338 -0.005354542
000270 80 e9 50 bd 61 bd ab bd fc 89 7c 3d 37 d8 87 bd
       -0.051003933 -0.083857305 0.06165503 -0.066330366
000280 d3 ef 28 3e 6f b3 03 ba d2 d2 52 3d 10 c3 13 3e
       0.16497736 -0.0005023991 0.051470585 0.14429879
000290 2b d1 30 3d 92 b2 a3 3d de 53 7a 3d e7 83 c9 3d
       0.043168228 0.07993044 0.06111514 0.098396115
0002a0 a9 48 4a 3d 2e 45 00 3d ef 78 8c bd d4 35 e7 bd
       0.0493857 0.031315975 -0.06859004 -0.11289564
0002b0 e6 cb 94 bd 63 60 bf 3d df 12 7e 3d 07 81 97 3c
       -0.07265453 0.09344556 0.062029716 0.018494142
0002c0 75 5b c8 bd a8 28 90 3c f2 22 9e 3c 70 1d 37 bd
       -0.09783069 0.017597511 0.019303773 -0.04470581
0002d0 33 ef e6 bc eb 94 4f 3b ba b7 4a 3b c3 44 9d bd
       -0.028190231 0.0031674455 0.0030932263 -0.07679131
0002e0 fd 19 79 bd c5 ea d0 3d 8f db ce bd be 45 6d 3c
       -0.0608158 0.10201029 -0.10100471 0.01448196
0002f0 3c 37 a1 3d c8 34 e0 3c 86 1b 84 bd 3e c5 e8 3d
       0.07871863 0.027368918 -0.06450562 0.11365746
000300 6d 4e b6 3d 0a 97 d7 3d db 60 84 3d 87 c4 26 3d
       0.08901677 0.10526855 0.06463786 0.040714767
000310 61 9e c6 bd 1e 79 12 3d 4e fa f4 3a 7a e2 26 3d
       -0.09698177 0.035760038 0.0018690319 0.04074333
000320 e9 0f 77 3d e7 42 ed bd d1 f8 bf bd d2 24 cb bb
       0.060317907 -0.11585026 -0.0937363 -0.0061994577
000330 4d e8 fa 3c 43 68 c0 3d 8f 26 53 bc 5c 18 12 bd
       0.030628348 0.09394886 -0.012887611 -0.035667762
000340 60 75 41 3d d0 42 0a 3e a0 22 bf bd 99 56 6a 3d
       0.04723108 0.1350205 -0.09332776 0.057211492
000350 44 89 99 bd b5 3a 40 3d e7 de 20 3c 39 ed 2d bd
       -0.074968845 0.046930987 0.009818769 -0.04246256
000360 62 5d 46 3d 7d 3f a9 bc b9 0f 0e bb 1e 70 c1 bb
       0.0484289 -0.020660156 -0.0021676852 -0.005903258
000370 ee 24 97 3d 4f 6b 9d 3d e4 e5 e1 3d 85 f6 3c 3e
       0.07380091 0.07686483 0.11030176 0.18453415
000380 03 26 54 bc da f2 0a bd 74 21 28 3c 57 08 5f 3d
       -0.012948516 -0.033923008 0.010261882 0.054451313
000390 cd cf 03 bd da 80 94 3d 86 29 ff 3d f7 d6 ae 3d
       -0.032180596 0.07251139 0.12459092 0.08537095
0003a0 c5 f1 b8 3d 36 ce 64 3c f7 5d f3 3d e5 99 ba 3b
       0.09030489 0.01396518 0.11883157 0.005694615
0003b0 4d fa 94 3d 0f c8 57 bd 55 e5 68 3d 41 8e 51 bd
       0.072743036 -0.052681025 0.056859333 -0.051161055
0003c0 ca 8c 31 bd 85 bd 89 bc f5 f7 09 bd 07 ab 89 bd
       -0.043347158 -0.016814003 -0.033683736 -0.06722074
0003d0 3b d6 15 3d 69 45 b5 3d 3e be b4 3d 92 21 0e 3e
       0.03658126 0.088511296 0.08825348 0.13879994
0003e0 33 34 1f bd 51 aa 06 3b 7d 35 f0 3c 23 dc 7a 3d
       -0.03886814 0.0020548294 0.02932238 0.061245095
0003f0 7a a2 f5 bb 1c 9b 1f bd 82 a6 e6 3c ea 4d f7 bc
       -0.0074961754 -0.038966283 0.028155569 -0.03018852

model.lin4.weights f4 [3, 120, 40]
000000 ab 30 1d 3d a2 2b bb 3c 06 4d f6 3d 86 c5 93 3d
       0.03837649 0.022847954 0.1202641 0.07215409
000010 ee f6 c9 3c ad cb 78 bd 05 b4 a2 3c 9c 50 bd 3c
       0.024653878 -0.060741115 0.01986123 0.023109727
000020 83 7a be bd f3 3b 6d 3d 7d 71 7c bd 8d c9 9a 3d
       -0.09300711 0.0579185 -0.06163167 0.07557974
000030 53 e7 35 bc df cf 83 bc ef 14 a6 3d db 5d e3 3c
       -0.011102515 -0.016090332 0.081094615 0.027754715
000040 0b 7d 2a 3c f3 06 82 ba eb 68 54 3d b6 00 0c bd
       0.010405789 -0.0009920284 0.05185787 -0.034180366
000050 c6 83 03 bc 1d ef 81 3b d3 ce 9b bd 1e 30 b2 bd
       -0.008027023 0.003965272 -0.07607808 -0.08700584
000060 89 b5 25 bd 58 cc af bd 91 f0 07 bd 66 80 ec 3d
       -0.04045633 -0.08583897 -0.033188406 0.115479276
000070 e0 a3 1b 3d 79 c9 6f bd df ff a2 bc e7 57 80 3c
       0.03799808 -0.05854175 -0.0198974 0.015666915
000080 a4 fc d7 3b 6f 78 95 3d bb d9 af 3d 1d 93 b3 3b
       0.0065913964 0.072983615 0.08586451 0.0054801838
000090 ac f9 13 bd 59 5a 82 bd c8 59 8d bd 16 d6 42 3d
       -0.036126778 -0.06364889 -0.0690189 0.04756745
0000a0 f7 54 5f bd 29 86 ce bc cd 1b d1 3d d8 72 d9 bc
       -0.05452439 -0.025210457 0.10210381 -0.02654402
0000b0 bc e1 5a bd 96 4a 6a bc 8b 3d 39 bd 63 e5 9b 3d
       -0.053437933 -0.014300009 -0.045224708 0.076121114
0000c0 c1 c3 16 3c 53 41 0f bc f8 03 52 3d c6 b6 29 bd
       0.009201945 -0.008743602 0.051273316 -0.041434072
0000d0 3f e1 0f 3b 3b 97 9e 3d c7 4d 9b 3c e7 9d a6 bd
       0.0021954325 0.07743689 0.018957986 -0.08135586
0000e0 8f e9 e1 3b 31 78 b3 3d 0f 9b 51 3d 90 4f 9b bd
       0.0068942974 0.08763159 0.051173266 -0.07583535
0000f0 c8 fc 0a 3d b2 d9 8e bd 63 e1 8f 3d f5 77 ad bd
       0.033932477 -0.06975116 0.07025411 -0.084701456
000100 db 30 99 3d 50 3b a2 3d c9 64 d2 bc 0d 4b 87 3b
       0.074800216 0.07921469 -0.025682824 0.00412882
000110 df 3e b3 3b 77 0f 83 3d b4 c3 6d 3d 19 ee 85 3c
       0.0054701413 0.06399434 0.058047965 0.016348885
000120 68 9a 57 bd 41 53 78 3d d2 d4 df 3d 94 26 de 3d
       -0.052637488 0.060626272 0.10929264 0.10847202
000130 8d 61 73 3d e2 25 08 bb 76 6b b4 bd 8d 41 6b bd
       0.059419204 -0.0020774533 -0.08809559 -0.05743556
000140 ce 2c df b9 ac b2 9e bb a9 e6 b7 bb 1d 3e 9c bd
       -0.00042567257 -0.0048430767 -0.0056122136 -0.07629035
000150 6f a2 e5 3b 22 9a 47 bd 5c 69 a0 3d c5 2e a9 3d
       0.007007889 -0.048730977 0.07832596 0.08260874
000160 cb e2 7a bc 5a ac 2a 3d 5a 9b 35 3d 93 f7 5e bd
       -0.015312861 0.041668274 0.044337608 -0.054435324
000170 b8 10 86 bd e0 82 31 bc 5f b3 cd 3d 80 b7 70 bd
       -0.065461576 -0.010834426 0.10043978 -0.05876875
000180 0e 34 93 3d 33 f8 c9 ba d9 8d 8b 3d b1 8d 6e bd
       0.07187663 -0.0015409052 0.06814165 -0.058240596
000190 c0 44 72 3d bd ca 09 bd 26 fa 58 bd 9a 9f 9a 3c
       0.059147596 -0.033640612 -0.052972935 0.018874932
0001a0 78 8e 8d 3d 05 0e f6 bc a6 5a cb 3d ec 03 61 bd
       0.069119394 -0.030035982 0.09929399 -0.05493538
0001b0 19 81 96 3d 35 32 4a bd c9 69 7f 3d a5 8f a1 3c
       0.07348842 -0.049364287 0.062356744 0.019721815
0001c0 5d d8 ef 3b 72 2e 98 bd 14 46 d6 3d c1 d6 93 bc
       0.0073194937 -0.07430734 0.10462585 -0.018046739
0001d0 a8 a8 a3 bd 19 ef d3 3a a1 dd a6 3d 9e 92 27 3d
       -0.07991153 0.0016169279 0.08147741 0.04091131
0001e0 0b f0 1a 3d c9 5c 3f bd 1d fd a9 3d 60 6b 94 bd
       0.03782658 -0.046719346 0.08300231 -0.07247043
0001f0 b3 79 65 bb 10 2d c8 bc ce 32 43 3d e8 36 0c 3d
       -0.0035015165 -0.02443555 0.047655873 0.03423205
000200 65 66 84 bd ec 9c 5a 3d 8d 9e cf 3d f2 9a 2e bd
       -0.06464843 0.05337231 0.10137663 -0.042628236
000210 42 c4 9d 3d c5 89 df 3c 8f a2 17 bd 7a e5 9b 3d
       0.07703449 0.027287373 -0.037020262 0.076121286
000220 2b 3e 6e 3d 3a e7 13 bd aa d5 4d bd 3a eb 77 bd
       0.058164757 -0.036109187 -0.050252594 -0.060527064
000230 12 c8 91 3d e6 82 b6 3b 62 80 a2 bd 41 13 da bb
       0.071182385 0.0055698035 -0.07934643 -0.0066551273
000240 54 2e fe bc 45 33 d4 3c ab bc c1 3d 9c 8f 91 3c
       -0.03102795 0.025903353 0.09459814 0.017768674
000250 9a 02 8e bd ce e6 cc 3d 43 46 7c bb 90 0e ff 3b
       -0.0693409 0.1000496 -0.0038494028 0.0077837184
000260 d6 35 4e bd fd 20 94 bd 83 7c cb 3d 26 cc c8 3d
       -0.05034431 -0.072328545 0.09935858 0.09804563
000270 61 78 46 3d 45 85 81 3d 10 7f a1 3d ca 30 4a 3c
       0.048454646 0.06324247 0.078855634 0.012340734
000280 e1 a8 e3 ba d9 05 8e bd 2c da dd bc d3 33 4b 3d
       -0.0017369055 -0.06934709 -0.027081572 0.04960997
000290 ac 94 44 3c e2 49 97 3d 88 14 03 3d aa 8c 9b 3d
       0.011998337 0.07387139 0.032002002 0.07595189
0002a0 56 33 3c 3c 1a 34 2f bd 28 9d cb bc c6 1a 8e 3d
       0.011486849 -0.042774297 -0.024855211 0.069387004
0002b0 91 e6 30 3c b1 bc 17 bd 83 e0 8d 3d d2 fa 50 bd
       0.010797159 -0.037045185 0.06927588 -0.05102045
0002c0 03 61 1a 3b 94 4e 92 bd 1d 8f cb 3c 55 ac e5 3c
       0.0023556359 -0.07143894 0.024848515 0.028036276
0002d0 7a 22 92 3c 61 fd 2b 3d 9d cb 97 3d a8 3c 5b 3d
       0.017838705 0.041989688 0.07411883 0.053524643
0002e0 27 9b 20 3d 1d 7b 9c 3c 76 27 75 bd 77 ac a7 bd
       0.039210465 0.019101674 -0.059852086 -0.08187192
0002f0 95 f8 3d 3d 9d b3 3b 3d 14 b5 a4 bc 9e 16 64 bc
       0.046379644 0.04582559 -0.020105876 -0.013921408
000300 29 b3 69 3d 3e 1e 97 3d 74 f2 c1 3c 3f 57 8b 3d
       0.057055626 0.07378815 0.023675181 0.0680375
000310 71 4d ae bd e9 b7 4a bd 20 fd 05 3c fe 7a 97 bc
       -0.085108645 -0.049491797 0.0081780255 -0.018491264
000320 57 65 46 3c ec c4 a3 3d 2b 0d 85 3d 22 db dd 3c
       0.012109122 0.07996544 0.06496652 0.02708203
000330 4f 2b ce 3c 99 1a a7 3d da bb 7c bd 44 93 ce 3d
       0.025167136 0.0815937 -0.061702587 0.100866824
000340 1b 3b 90 3d a7 15 27 3d 46 02 3d bd 33 c2 11 bd
       0.070425235 0.040792134 -0.046144746 -0.035585593
000350 17 fd b4 3d 2a 75 ec 3c 63 15 e5 3d e3 3c 96 3d
       0.088373356 0.028864462 0.1118572 0.07335832
000360 5a cd 77 3d 13 49 43 3d fc df 9a bd cd b1 3f 3d
       0.060498573 0.04767711 -0.07562253 0.046800423
000370 bb a9 a4 bc c4 00 20 bb 4e 24 f2 3c b9 92 b9 3c
       -0.020100465 -0.002441452 0.029558327 0.02265297
000380 73 1a b3 3d e8 aa fe 3c a1 d7 bf 3c 25 2e e3 bc
       0.08745279 0.031087354 0.02341825 -0.027731964
000390 ca e5 b2 bc 67 96 d7 3d 31 95 bc 3b 6e 5d 75 3c
       -0.021838088 0.10526734 0.0057550897 0.014975889
0003a0 ba e7 8e bd 23 64 fd 3c c6 d9 63 3b 76 30 ec 3d
       -0.06977792 0.030931538 0.0034767254 0.11532681
0003b0 a9 1f b7 bd ac 39 22 3d 71 59 74 bd 48 74 d3 3b
       -0.089415856 0.03960578 -0.05965561 0.006453071
0003c0 12 86 50 3d 61 c4 d0 3c c8 d3 04 3d e7 5b b9 3d
       0.05090911 0.025484266 0.032428533 0.09050732
0003d0 9b e8 a2 b9 af e6 ed 3c 2c a9 40 3d 2d a2 ae bd
       -0.00031072352 0.029040663 0.047036335 -0.08527026
0003e0 cc 55 9c 3d cc cf 71 bd 7c da 32 bd ef ca 80 bc
       0.07633552 -0.05903606 -0.043665394 -0.015721766
0003f0 40 85 b7 bd 7f 1d 34 3d db eb 1f bd fd 40 0c 3d
       -0.08960962 0.043973442 -0.03904329 0.034241665

model.lin4.biases f4 [3, 1, 40]
000000 ad b1 3f 3c 73 b8 a7 3d 48 ac 3a 3d 67 39 4b bd
       0.011700076 0.08189478 0.045574456 -0.04961529
000010 c0 15 43 3d 36 67 65 bd 7b 4f 4e bd e5 a3 16 3c
       0.047628164 -0.056006633 -0.050368767 0.009194349
000020 d3 78 d3 3c 1d 6c 3e 3d d3 9c 4d 3c ee f7 b9 bd
       0.02581445 0.046489824 0.012549597 -0.09080492
000030 69 66 89 bd 78 02 51 bd e2 17 0f 3d 84 13 8f bd
       -0.06708986 -0.051027745 0.034934886 -0.06986144
000040 f4 63 6e bd 0d 53 ca 3d f6 a4 9f bb 22 b3 ae 3c
       -0.05820079 0.09879122 -0.00487196 0.021325652
000050 d5 4b 13 3d e4 70 a2 bd 98 dc 72 b9 6c 32 1a 3d
       0.03596099 -0.079316884 -0.00023161096 0.037645742
000060 fa c9 6e 3d 67 c2 b9 bb 5c fb 9e 3c 06 05 ee bc
       0.05829809 -0.0056689265 0.019406967 -0.02905513
000070 76 a0 ae 3c 96 2c 49 3d 76 55 ca 3d 4d 47 94 bc
       0.021316748 0.049114786 0.09879582 -0.018100405
000080 c6 de 9c 3d 0a 52 35 3d 4e ac 50 3c c8 44 36 bd
       0.07659678 0.04426769 0.012736393 -0.04449919
000090 47 25 7a 3d eb c6 98 3d 9b 63 11 bd c4 c6 84 bd
       0.061070707 0.074598156 -0.03549538 -0.06483224
0000a0 dd d5 a8 3c f1 e9 b9 bc 31 46 08 3b 3b 1c 40 3c
       0.02060979 -0.02269456 0.002079379 0.011725481
0000b0 11 07 b2 3d 85 53 af bd 34 72 69 3d b3 07 ac bd
       0.08692754 -0.08560852 0.05699368 -0.08399906
0000c0 13 43 2d bc 12 97 94 3d 8b b8 28 3d 96 be 9c bd
       -0.010575074 0.07255377 0.04119162 -0.07653539
0000d0 9f 52 3d bc 33 6d 12 3d 5f 09 4c 3d 61 3c d0 3d
       -0.011555343 0.03574867 0.049813624 0.10167766
0000e0 51 1a fc 3d 5c d8 5a bd cc 37 65 3d d3 e9 85 3d
       0.12309707 -0.053428993 0.055961415 0.06538739
0000f0 7f f5 b8 3d bd 65 82 3d 62 d5 1b bd e1 dc af 3c
       0.090312 0.06367061 -0.038045295 0.021467628
000100 af a0 85 3c 41 a6 82 3d a6 98 d2 3d fe df fc bc
       0.016311971 0.06379367 0.10283022 -0.030868527
000110 06 18 ad 3d 40 4f 36 3d 35 16 60 bd 21 10 a8 bd
       0.08451848 0.044509172 -0.05470868 -0.08206201
000120 c2 df 01 3d fb dc eb bc 43 0a 8b 3c 44 dd 75 bd
       0.031707533 -0.028791895 0.016972667 -0.06002547
000130 6b d4 8d 3c 0b bc 2f bd 6f a1 47 3d a3 36 d8 3d
       0.017313203 -0.04290394 0.04873794 0.10557296
000140 eb 90 93 3c 28 2a c9 3d 8d 58 93 3a 18 fe 89 3d
       0.018013438 0.09822494 0.00112416 0.06737918
000150 d7 11 16 3d bd 44 10 bd b1 63 64 bd 2a f1 0e bd
       0.036638107 -0.035221804 -0.055759136 -0.03489796
000160 a7 0d a1 3d ff 49 57 bc 7a 3b 72 bc 75 f6 e7 bc
       0.07863932 -0.013140201 -0.014784688 -0.028315762
000170 fc d2 69 3d 78 20 a1 bc 87 a9 2c 3c b2 5c d1 3d
       0.057085976 -0.019668803 0.010538465 0.10222758
000180 84 f8 94 bc 76 ef cb 3c 2a 62 97 3d c2 14 5b 3d
       -0.018184908 0.024894457 0.0739177 0.053486593
000190 c5 2e 27 bd 3f 74 83 bd 47 a1 2d bd 49 13 4d bc
       -0.040816087 -0.064186566 -0.042390134 -0.012516805
0001a0 21 f0 99 3d 04 66 30 bd ae 12 19 3c 98 a1 11 bb
       0.07516504 -0.04306604 0.0093428325 -0.0022221562
0001b0 2b e3 28 3d 4a a4 0e bd 89 9f a1 3c 00 ed a0 3d
       0.04123227 -0.034824647 0.019729393 0.07857704
0001c0 66 68 af bd f7 e9 4a bc fc b0 ab 3d e2 25 3f 3c
       -0.08564834 -0.012384883 0.083833665 0.011666747
0001d0 7f 2c c8 3b d7 ba 0b bd c0 81 3c 3d 59 2f 81 3d
       0.00610882 -0.03411373 0.046022177 0.06307859
